MultiScaleLgtFormer(
  (patch_embed): PatchEmbed(
    (proj): Sequential(
      (0): Conv2d(3, 16, kernel_size=(3, 3), stride=(1, 1), padding=(1, 1), bias=False)
      (1): BatchNorm2d(16, eps=1e-05, momentum=0.1, affine=True, track_running_stats=True)
      (2): GELU(approximate='none')
      (3): Conv2d(16, 32, kernel_size=(3, 3), stride=(2, 2), padding=(1, 1), bias=False)
      (4): BatchNorm2d(32, eps=1e-05, momentum=0.1, affine=True, track_running_stats=True)
      (5): GELU(approximate='none')
      (6): Conv2d(32, 64, kernel_size=(3, 3), stride=(1, 1), padding=(1, 1), bias=False)
      (7): BatchNorm2d(64, eps=1e-05, momentum=0.1, affine=True, track_running_stats=True)
      (8): GELU(approximate='none')
      (9): Conv2d(64, 72, kernel_size=(3, 3), stride=(2, 2), padding=(1, 1), bias=False)
    )
  )
  (stages): ModuleList(
    (0): LocalStage(
      (blocks): ModuleList(
        (0): LocalBlock(
          (pos_embed): Conv2d(72, 72, kernel_size=(3, 3), stride=(1, 1), padding=(1, 1), groups=72)
          (norm1): LayerNorm((72,), eps=1e-06, elementwise_affine=True)
          (attn): MultiDilateLocalAttention(
            (qkv): Conv2d(72, 216, kernel_size=(1, 1), stride=(1, 1))
            (dilate_attention): ModuleList(
              (0): DilateAttention(
                (unfold): Unfold(kernel_size=3, dilation=1, padding=1, stride=1)
                (attn_drop): Dropout(p=0.0, inplace=False)
              )
              (1): DilateAttention(
                (unfold): Unfold(kernel_size=3, dilation=2, padding=2, stride=1)
                (attn_drop): Dropout(p=0.0, inplace=False)
              )
              (2): DilateAttention(
                (unfold): Unfold(kernel_size=3, dilation=3, padding=3, stride=1)
                (attn_drop): Dropout(p=0.0, inplace=False)
              )
            )
            (dwconv_attn): DWConvAttention(
              (dwconv): Conv2d(72, 72, kernel_size=(3, 3), stride=(1, 1), padding=(1, 1), groups=72)
            )
            (proj): Linear(in_features=72, out_features=72, bias=True)
            (proj_drop): Dropout(p=0.0, inplace=False)
          )
          (drop_path): Identity()
          (norm2): LayerNorm((72,), eps=1e-06, elementwise_affine=True)
          (mlp): Mlp(
            (fc1): Linear(in_features=72, out_features=288, bias=True)
            (act): GELU(approximate='none')
            (fc2): Linear(in_features=288, out_features=72, bias=True)
            (drop): Dropout(p=0.0, inplace=False)
          )
        )
        (1): LocalBlock(
          (pos_embed): Conv2d(72, 72, kernel_size=(3, 3), stride=(1, 1), padding=(1, 1), groups=72)
          (norm1): LayerNorm((72,), eps=1e-06, elementwise_affine=True)
          (attn): MultiDilateLocalAttention(
            (qkv): Conv2d(72, 216, kernel_size=(1, 1), stride=(1, 1))
            (dilate_attention): ModuleList(
              (0): DilateAttention(
                (unfold): Unfold(kernel_size=3, dilation=1, padding=1, stride=1)
                (attn_drop): Dropout(p=0.0, inplace=False)
              )
              (1): DilateAttention(
                (unfold): Unfold(kernel_size=3, dilation=2, padding=2, stride=1)
                (attn_drop): Dropout(p=0.0, inplace=False)
              )
              (2): DilateAttention(
                (unfold): Unfold(kernel_size=3, dilation=3, padding=3, stride=1)
                (attn_drop): Dropout(p=0.0, inplace=False)
              )
            )
            (dwconv_attn): DWConvAttention(
              (dwconv): Conv2d(72, 72, kernel_size=(3, 3), stride=(1, 1), padding=(1, 1), groups=72)
            )
            (proj): Linear(in_features=72, out_features=72, bias=True)
            (proj_drop): Dropout(p=0.0, inplace=False)
          )
          (drop_path): DropPath(drop_prob=0.008)
          (norm2): LayerNorm((72,), eps=1e-06, elementwise_affine=True)
          (mlp): Mlp(
            (fc1): Linear(in_features=72, out_features=288, bias=True)
            (act): GELU(approximate='none')
            (fc2): Linear(in_features=288, out_features=72, bias=True)
            (drop): Dropout(p=0.0, inplace=False)
          )
        )
      )
      (downsample): PatchMerging(
        (proj): Sequential(
          (0): Conv2d(72, 144, kernel_size=(3, 3), stride=(2, 2), padding=(1, 1))
          (1): BatchNorm2d(144, eps=1e-05, momentum=0.1, affine=True, track_running_stats=True)
        )
      )
    )
    (1): LocalStage(
      (blocks): ModuleList(
        (0): LocalBlock(
          (pos_embed): Conv2d(144, 144, kernel_size=(3, 3), stride=(1, 1), padding=(1, 1), groups=144)
          (norm1): LayerNorm((144,), eps=1e-06, elementwise_affine=True)
          (attn): MultiDilateLocalAttention(
            (qkv): Conv2d(144, 432, kernel_size=(1, 1), stride=(1, 1))
            (dilate_attention): ModuleList(
              (0): DilateAttention(
                (unfold): Unfold(kernel_size=3, dilation=1, padding=1, stride=1)
                (attn_drop): Dropout(p=0.0, inplace=False)
              )
              (1): DilateAttention(
                (unfold): Unfold(kernel_size=3, dilation=2, padding=2, stride=1)
                (attn_drop): Dropout(p=0.0, inplace=False)
              )
              (2): DilateAttention(
                (unfold): Unfold(kernel_size=3, dilation=3, padding=3, stride=1)
                (attn_drop): Dropout(p=0.0, inplace=False)
              )
            )
            (dwconv_attn): DWConvAttention(
              (dwconv): Conv2d(144, 144, kernel_size=(3, 3), stride=(1, 1), padding=(1, 1), groups=144)
            )
            (proj): Linear(in_features=144, out_features=144, bias=True)
            (proj_drop): Dropout(p=0.0, inplace=False)
          )
          (drop_path): DropPath(drop_prob=0.015)
          (norm2): LayerNorm((144,), eps=1e-06, elementwise_affine=True)
          (mlp): Mlp(
            (fc1): Linear(in_features=144, out_features=576, bias=True)
            (act): GELU(approximate='none')
            (fc2): Linear(in_features=576, out_features=144, bias=True)
            (drop): Dropout(p=0.0, inplace=False)
          )
        )
        (1): LocalBlock(
          (pos_embed): Conv2d(144, 144, kernel_size=(3, 3), stride=(1, 1), padding=(1, 1), groups=144)
          (norm1): LayerNorm((144,), eps=1e-06, elementwise_affine=True)
          (attn): MultiDilateLocalAttention(
            (qkv): Conv2d(144, 432, kernel_size=(1, 1), stride=(1, 1))
            (dilate_attention): ModuleList(
              (0): DilateAttention(
                (unfold): Unfold(kernel_size=3, dilation=1, padding=1, stride=1)
                (attn_drop): Dropout(p=0.0, inplace=False)
              )
              (1): DilateAttention(
                (unfold): Unfold(kernel_size=3, dilation=2, padding=2, stride=1)
                (attn_drop): Dropout(p=0.0, inplace=False)
              )
              (2): DilateAttention(
                (unfold): Unfold(kernel_size=3, dilation=3, padding=3, stride=1)
                (attn_drop): Dropout(p=0.0, inplace=False)
              )
            )
            (dwconv_attn): DWConvAttention(
              (dwconv): Conv2d(144, 144, kernel_size=(3, 3), stride=(1, 1), padding=(1, 1), groups=144)
            )
            (proj): Linear(in_features=144, out_features=144, bias=True)
            (proj_drop): Dropout(p=0.0, inplace=False)
          )
          (drop_path): DropPath(drop_prob=0.023)
          (norm2): LayerNorm((144,), eps=1e-06, elementwise_affine=True)
          (mlp): Mlp(
            (fc1): Linear(in_features=144, out_features=576, bias=True)
            (act): GELU(approximate='none')
            (fc2): Linear(in_features=576, out_features=144, bias=True)
            (drop): Dropout(p=0.0, inplace=False)
          )
        )
        (2): LocalBlock(
          (pos_embed): Conv2d(144, 144, kernel_size=(3, 3), stride=(1, 1), padding=(1, 1), groups=144)
          (norm1): LayerNorm((144,), eps=1e-06, elementwise_affine=True)
          (attn): MultiDilateLocalAttention(
            (qkv): Conv2d(144, 432, kernel_size=(1, 1), stride=(1, 1))
            (dilate_attention): ModuleList(
              (0): DilateAttention(
                (unfold): Unfold(kernel_size=3, dilation=1, padding=1, stride=1)
                (attn_drop): Dropout(p=0.0, inplace=False)
              )
              (1): DilateAttention(
                (unfold): Unfold(kernel_size=3, dilation=2, padding=2, stride=1)
                (attn_drop): Dropout(p=0.0, inplace=False)
              )
              (2): DilateAttention(
                (unfold): Unfold(kernel_size=3, dilation=3, padding=3, stride=1)
                (attn_drop): Dropout(p=0.0, inplace=False)
              )
            )
            (dwconv_attn): DWConvAttention(
              (dwconv): Conv2d(144, 144, kernel_size=(3, 3), stride=(1, 1), padding=(1, 1), groups=144)
            )
            (proj): Linear(in_features=144, out_features=144, bias=True)
            (proj_drop): Dropout(p=0.0, inplace=False)
          )
          (drop_path): DropPath(drop_prob=0.031)
          (norm2): LayerNorm((144,), eps=1e-06, elementwise_affine=True)
          (mlp): Mlp(
            (fc1): Linear(in_features=144, out_features=576, bias=True)
            (act): GELU(approximate='none')
            (fc2): Linear(in_features=576, out_features=144, bias=True)
            (drop): Dropout(p=0.0, inplace=False)
          )
        )
        (3): LocalBlock(
          (pos_embed): Conv2d(144, 144, kernel_size=(3, 3), stride=(1, 1), padding=(1, 1), groups=144)
          (norm1): LayerNorm((144,), eps=1e-06, elementwise_affine=True)
          (attn): MultiDilateLocalAttention(
            (qkv): Conv2d(144, 432, kernel_size=(1, 1), stride=(1, 1))
            (dilate_attention): ModuleList(
              (0): DilateAttention(
                (unfold): Unfold(kernel_size=3, dilation=1, padding=1, stride=1)
                (attn_drop): Dropout(p=0.0, inplace=False)
              )
              (1): DilateAttention(
                (unfold): Unfold(kernel_size=3, dilation=2, padding=2, stride=1)
                (attn_drop): Dropout(p=0.0, inplace=False)
              )
              (2): DilateAttention(
                (unfold): Unfold(kernel_size=3, dilation=3, padding=3, stride=1)
                (attn_drop): Dropout(p=0.0, inplace=False)
              )
            )
            (dwconv_attn): DWConvAttention(
              (dwconv): Conv2d(144, 144, kernel_size=(3, 3), stride=(1, 1), padding=(1, 1), groups=144)
            )
            (proj): Linear(in_features=144, out_features=144, bias=True)
            (proj_drop): Dropout(p=0.0, inplace=False)
          )
          (drop_path): DropPath(drop_prob=0.038)
          (norm2): LayerNorm((144,), eps=1e-06, elementwise_affine=True)
          (mlp): Mlp(
            (fc1): Linear(in_features=144, out_features=576, bias=True)
            (act): GELU(approximate='none')
            (fc2): Linear(in_features=576, out_features=144, bias=True)
            (drop): Dropout(p=0.0, inplace=False)
          )
        )
      )
      (downsample): PatchMerging(
        (proj): Sequential(
          (0): Conv2d(144, 288, kernel_size=(3, 3), stride=(2, 2), padding=(1, 1))
          (1): BatchNorm2d(288, eps=1e-05, momentum=0.1, affine=True, track_running_stats=True)
        )
      )
    )
    (2): DCNStage(
      (blocks): ModuleList(
        (0): DCNBlock(
          (pos_embed): Conv2d(288, 288, kernel_size=(3, 3), stride=(1, 1), padding=(1, 1), groups=288)
          (norm1): LayerNorm((288,), eps=1e-06, elementwise_affine=True)
          (dcn): DCNv4(
            (offset_mask_dw): Conv2d(288, 288, kernel_size=(3, 3), stride=(1, 1), padding=(1, 1), groups=288)
            (offset_mask): Linear(in_features=288, out_features=488, bias=True)
            (value_proj): Linear(in_features=288, out_features=288, bias=True)
            (output_proj): Linear(in_features=288, out_features=288, bias=True)
          )
          (drop_path): DropPath(drop_prob=0.046)
          (norm2): LayerNorm((288,), eps=1e-06, elementwise_affine=True)
          (mlp): Mlp(
            (fc1): Linear(in_features=288, out_features=1152, bias=True)
            (act): GELU(approximate='none')
            (fc2): Linear(in_features=1152, out_features=288, bias=True)
            (drop): Dropout(p=0.0, inplace=False)
          )
        )
        (1): DCNBlock(
          (pos_embed): Conv2d(288, 288, kernel_size=(3, 3), stride=(1, 1), padding=(1, 1), groups=288)
          (norm1): LayerNorm((288,), eps=1e-06, elementwise_affine=True)
          (dcn): DCNv4(
            (offset_mask_dw): Conv2d(288, 288, kernel_size=(3, 3), stride=(1, 1), padding=(1, 1), groups=288)
            (offset_mask): Linear(in_features=288, out_features=488, bias=True)
            (value_proj): Linear(in_features=288, out_features=288, bias=True)
            (output_proj): Linear(in_features=288, out_features=288, bias=True)
          )
          (drop_path): DropPath(drop_prob=0.054)
          (norm2): LayerNorm((288,), eps=1e-06, elementwise_affine=True)
          (mlp): Mlp(
            (fc1): Linear(in_features=288, out_features=1152, bias=True)
            (act): GELU(approximate='none')
            (fc2): Linear(in_features=1152, out_features=288, bias=True)
            (drop): Dropout(p=0.0, inplace=False)
          )
        )
        (2): DCNBlock(
          (pos_embed): Conv2d(288, 288, kernel_size=(3, 3), stride=(1, 1), padding=(1, 1), groups=288)
          (norm1): LayerNorm((288,), eps=1e-06, elementwise_affine=True)
          (dcn): DCNv4(
            (offset_mask_dw): Conv2d(288, 288, kernel_size=(3, 3), stride=(1, 1), padding=(1, 1), groups=288)
            (offset_mask): Linear(in_features=288, out_features=488, bias=True)
            (value_proj): Linear(in_features=288, out_features=288, bias=True)
            (output_proj): Linear(in_features=288, out_features=288, bias=True)
          )
          (drop_path): DropPath(drop_prob=0.062)
          (norm2): LayerNorm((288,), eps=1e-06, elementwise_affine=True)
          (mlp): Mlp(
            (fc1): Linear(in_features=288, out_features=1152, bias=True)
            (act): GELU(approximate='none')
            (fc2): Linear(in_features=1152, out_features=288, bias=True)
            (drop): Dropout(p=0.0, inplace=False)
          )
        )
        (3): DCNBlock(
          (pos_embed): Conv2d(288, 288, kernel_size=(3, 3), stride=(1, 1), padding=(1, 1), groups=288)
          (norm1): LayerNorm((288,), eps=1e-06, elementwise_affine=True)
          (dcn): DCNv4(
            (offset_mask_dw): Conv2d(288, 288, kernel_size=(3, 3), stride=(1, 1), padding=(1, 1), groups=288)
            (offset_mask): Linear(in_features=288, out_features=488, bias=True)
            (value_proj): Linear(in_features=288, out_features=288, bias=True)
            (output_proj): Linear(in_features=288, out_features=288, bias=True)
          )
          (drop_path): DropPath(drop_prob=0.069)
          (norm2): LayerNorm((288,), eps=1e-06, elementwise_affine=True)
          (mlp): Mlp(
            (fc1): Linear(in_features=288, out_features=1152, bias=True)
            (act): GELU(approximate='none')
            (fc2): Linear(in_features=1152, out_features=288, bias=True)
            (drop): Dropout(p=0.0, inplace=False)
          )
        )
        (4): DCNBlock(
          (pos_embed): Conv2d(288, 288, kernel_size=(3, 3), stride=(1, 1), padding=(1, 1), groups=288)
          (norm1): LayerNorm((288,), eps=1e-06, elementwise_affine=True)
          (dcn): DCNv4(
            (offset_mask_dw): Conv2d(288, 288, kernel_size=(3, 3), stride=(1, 1), padding=(1, 1), groups=288)
            (offset_mask): Linear(in_features=288, out_features=488, bias=True)
            (value_proj): Linear(in_features=288, out_features=288, bias=True)
            (output_proj): Linear(in_features=288, out_features=288, bias=True)
          )
          (drop_path): DropPath(drop_prob=0.077)
          (norm2): LayerNorm((288,), eps=1e-06, elementwise_affine=True)
          (mlp): Mlp(
            (fc1): Linear(in_features=288, out_features=1152, bias=True)
            (act): GELU(approximate='none')
            (fc2): Linear(in_features=1152, out_features=288, bias=True)
            (drop): Dropout(p=0.0, inplace=False)
          )
        )
        (5): DCNBlock(
          (pos_embed): Conv2d(288, 288, kernel_size=(3, 3), stride=(1, 1), padding=(1, 1), groups=288)
          (norm1): LayerNorm((288,), eps=1e-06, elementwise_affine=True)
          (dcn): DCNv4(
            (offset_mask_dw): Conv2d(288, 288, kernel_size=(3, 3), stride=(1, 1), padding=(1, 1), groups=288)
            (offset_mask): Linear(in_features=288, out_features=488, bias=True)
            (value_proj): Linear(in_features=288, out_features=288, bias=True)
            (output_proj): Linear(in_features=288, out_features=288, bias=True)
          )
          (drop_path): DropPath(drop_prob=0.085)
          (norm2): LayerNorm((288,), eps=1e-06, elementwise_affine=True)
          (mlp): Mlp(
            (fc1): Linear(in_features=288, out_features=1152, bias=True)
            (act): GELU(approximate='none')
            (fc2): Linear(in_features=1152, out_features=288, bias=True)
            (drop): Dropout(p=0.0, inplace=False)
          )
        )
      )
      (downsample): PatchMerging(
        (proj): Sequential(
          (0): Conv2d(288, 576, kernel_size=(3, 3), stride=(2, 2), padding=(1, 1))
          (1): BatchNorm2d(576, eps=1e-05, momentum=0.1, affine=True, track_running_stats=True)
        )
      )
    )
    (3): DCNStage(
      (blocks): ModuleList(
        (0): DCNBlock(
          (pos_embed): Conv2d(576, 576, kernel_size=(3, 3), stride=(1, 1), padding=(1, 1), groups=576)
          (norm1): LayerNorm((576,), eps=1e-06, elementwise_affine=True)
          (dcn): DCNv4(
            (offset_mask_dw): Conv2d(576, 576, kernel_size=(3, 3), stride=(1, 1), padding=(1, 1), groups=576)
            (offset_mask): Linear(in_features=576, out_features=976, bias=True)
            (value_proj): Linear(in_features=576, out_features=576, bias=True)
            (output_proj): Linear(in_features=576, out_features=576, bias=True)
          )
          (drop_path): DropPath(drop_prob=0.092)
          (norm2): LayerNorm((576,), eps=1e-06, elementwise_affine=True)
          (mlp): Mlp(
            (fc1): Linear(in_features=576, out_features=2304, bias=True)
            (act): GELU(approximate='none')
            (fc2): Linear(in_features=2304, out_features=576, bias=True)
            (drop): Dropout(p=0.0, inplace=False)
          )
        )
        (1): DCNBlock(
          (pos_embed): Conv2d(576, 576, kernel_size=(3, 3), stride=(1, 1), padding=(1, 1), groups=576)
          (norm1): LayerNorm((576,), eps=1e-06, elementwise_affine=True)
          (dcn): DCNv4(
            (offset_mask_dw): Conv2d(576, 576, kernel_size=(3, 3), stride=(1, 1), padding=(1, 1), groups=576)
            (offset_mask): Linear(in_features=576, out_features=976, bias=True)
            (value_proj): Linear(in_features=576, out_features=576, bias=True)
            (output_proj): Linear(in_features=576, out_features=576, bias=True)
          )
          (drop_path): DropPath(drop_prob=0.100)
          (norm2): LayerNorm((576,), eps=1e-06, elementwise_affine=True)
          (mlp): Mlp(
            (fc1): Linear(in_features=576, out_features=2304, bias=True)
            (act): GELU(approximate='none')
            (fc2): Linear(in_features=2304, out_features=576, bias=True)
            (drop): Dropout(p=0.0, inplace=False)
          )
        )
      )
      (downsample): PatchMerging(
        (proj): Sequential(
          (0): Conv2d(576, 1152, kernel_size=(3, 3), stride=(2, 2), padding=(1, 1))
          (1): BatchNorm2d(1152, eps=1e-05, momentum=0.1, affine=True, track_running_stats=True)
        )
      )
    )
  )
  (norm): LayerNorm((1152,), eps=1e-06, elementwise_affine=True)
  (avgpool): AdaptiveAvgPool1d(output_size=1)
  (head): Linear(in_features=1152, out_features=100, bias=True)
)
| module                       | #parameters or shape   | #flops     |
|:-----------------------------|:-----------------------|:-----------|
| model                        | 22.938M                | 3.496G     |
|  patch_embed.proj            |  65.168K               |  0.445G    |
|   patch_embed.proj.0         |   0.432K               |   21.676M  |
…
